…
          pretrained: False                         
          sample_num: not-supported                 	[default: 20]
            save_dir: ./checkpoints/EMDB_5ch_6class_last60s_pad_weightauto_selectlabel_multiscale	[default: ./checkpoints/]
   select_sleep_time: not-supported                 	[default: False]
           separated: False                         
         signal_name: not-supported                 	[default: EEG Fpz-Cz]
          weight_mod: auto                          	[default: normal]
----------------- End -------------------
network:
Multi_Scale_ResNet(
  (pre_conv): Sequential(
    (0): Conv1d(5, 64, kernel_size=(15,), stride=(2,), padding=(7,), bias=False)
    (1): BatchNorm1d(64, eps=1e-05, momentum=0.1, affine=True, track_running_stats=True)
    (2): ReLU(inplace=True)
    (3): MaxPool1d(kernel_size=3, stride=2, padding=1, dilation=1, ceil_mode=False)
  )
  (Route1): Route(
    (block1): ResidualBlock(
      (conv): Sequential(
        (0): Conv1d(64, 64, kernel_size=(3,), stride=(1,), padding=(1,), bias=False)
        (1): BatchNorm1d(64, eps=1e-05, momentum=0.1, affine=True, track_running_stats=True)
        (2): ReLU(inplace=True)
        (3): Conv1d(64, 64, kernel_size=(3,), stride=(1,), padding=(1,), bias=False)
        (4): BatchNorm1d(64, eps=1e-05, momentum=0.1, affine=True, track_running_stats=True)
      )
      (shortcut): Sequential(
        (0): Conv1d(64, 64, kernel_size=(1,), stride=(2,), bias=False)
        (1): BatchNorm1d(64, eps=1e-05, momentum=0.1, affine=True, track_running_stats=True)
      )
    )
    (block2): ResidualBlock(
      (conv): Sequential(
        (0): Conv1d(64, 128, kernel_size=(3,), stride=(2,), padding=(1,), bias=False)
        (1): BatchNorm1d(128, eps=1e-05, momentum=0.1, affine=True, track_running_stats=True)
        (2): ReLU(inplace=True)
        (3): Conv1d(128, 128, kernel_size=(3,), stride=(1,), padding=(1,), bias=False)
        (4): BatchNorm1d(128, eps=1e-05, momentum=0.1, affine=True, track_running_stats=True)
      )
      (shortcut): Sequential(
        (0): Conv1d(64, 128, kernel_size=(1,), stride=(2,), bias=False)
        (1): BatchNorm1d(128, eps=1e-05, momentum=0.1, affine=True, track_running_stats=True)
      )
    )
    (block3): ResidualBlock(
      (conv): Sequential(
        (0): Conv1d(128, 256, kernel_size=(3,), stride=(2,), padding=(1,), bias=False)
        (1): BatchNorm1d(256, eps=1e-05, momentum=0.1, affine=True, track_running_stats=True)
        (2): ReLU(inplace=True)
        (3): Conv1d(256, 256, kernel_size=(3,), stride=(1,), padding=(1,), bias=False)
        (4): BatchNorm1d(256, eps=1e-05, momentum=0.1, affine=True, track_running_stats=True)
      )
      (shortcut): Sequential(
        (0): Conv1d(128, 256, kernel_size=(1,), stride=(2,), bias=False)
        (1): BatchNorm1d(256, eps=1e-05, momentum=0.1, affine=True, track_running_stats=True)
      )
    )
    (block4): ResidualBlock(
      (conv): Sequential(
        (0): Conv1d(256, 512, kernel_size=(3,), stride=(2,), padding=(1,), bias=False)
        (1): BatchNorm1d(512, eps=1e-05, momentum=0.1, affine=True, track_running_stats=True)
        (2): ReLU(inplace=True)
        (3): Conv1d(512, 512, kernel_size=(3,), stride=(1,), padding=(1,), bias=False)
        (4): BatchNorm1d(512, eps=1e-05, momentum=0.1, affine=True, track_running_stats=True)
      )
      (shortcut): Sequential(
        (0): Conv1d(256, 512, kernel_size=(1,), stride=(2,), bias=False)
        (1): BatchNorm1d(512, eps=1e-05, momentum=0.1, affine=True, track_running_stats=True)
      )
    )
    (avgpool): AdaptiveAvgPool1d(output_size=1)
  )
  (Route2): Route(
    (block1): ResidualBlock(
      (conv): Sequential(
        (0): Conv1d(64, 64, kernel_size=(5,), stride=(1,), padding=(2,), bias=False)
        (1): BatchNorm1d(64, eps=1e-05, momentum=0.1, affine=True, track_running_stats=True)
        (2): ReLU(inplace=True)
        (3): Conv1d(64, 64, kernel_size=(5,), stride=(1,), padding=(2,), bias=False)
        (4): BatchNorm1d(64, eps=1e-05, momentum=0.1, affine=True, track_running_stats=True)
      )
      (shortcut): Sequential(
        (0): Conv1d(64, 64, kernel_size=(1,), stride=(2,), bias=False)
        (1): BatchNorm1d(64, eps=1e-05, momentum=0.1, affine=True, track_running_stats=True)
      )
    )
    (block2): ResidualBlock(
      (conv): Sequential(
        (0): Conv1d(64, 128, kernel_size=(5,), stride=(2,), padding=(2,), bias=False)
        (1): BatchNorm1d(128, eps=1e-05, momentum=0.1, affine=True, track_running_stats=True)
        (2): ReLU(inplace=True)
        (3): Conv1d(128, 128, kernel_size=(5,), stride=(1,), padding=(2,), bias=False)
        (4): BatchNorm1d(128, eps=1e-05, momentum=0.1, affine=True, track_running_stats=True)
      )
      (shortcut): Sequential(
        (0): Conv1d(64, 128, kernel_size=(1,), stride=(2,), bias=False)
        (1): BatchNorm1d(128, eps=1e-05, momentum=0.1, affine=True, track_running_stats=True)
      )
    )
    (block3): ResidualBlock(
      (conv): Sequential(
        (0): Conv1d(128, 256, kernel_size=(5,), stride=(2,), padding=(2,), bias=False)
        (1): BatchNorm1d(256, eps=1e-05, momentum=0.1, affine=True, track_running_stats=True)
        (2): ReLU(inplace=True)
        (3): Conv1d(256, 256, kernel_size=(5,), stride=(1,), padding=(2,), bias=False)
        (4): BatchNorm1d(256, eps=1e-05, momentum=0.1, affine=True, track_running_stats=True)
      )
      (shortcut): Sequential(
        (0): Conv1d(128, 256, kernel_size=(1,), stride=(2,), bias=False)
        (1): BatchNorm1d(256, eps=1e-05, momentum=0.1, affine=True, track_running_stats=True)
      )
    )
    (block4): ResidualBlock(
      (conv): Sequential(
        (0): Conv1d(256, 512, kernel_size=(5,), stride=(2,), padding=(2,), bias=False)
        (1): BatchNorm1d(512, eps=1e-05, momentum=0.1, affine=True, track_running_stats=True)
        (2): ReLU(inplace=True)
        (3): Conv1d(512, 512, kernel_size=(5,), stride=(1,), padding=(2,), bias=False)
        (4): BatchNorm1d(512, eps=1e-05, momentum=0.1, affine=True, track_running_stats=True)
      )
      (shortcut): Sequential(
        (0): Conv1d(256, 512, kernel_size=(1,), stride=(2,), bias=False)
        (1): BatchNorm1d(512, eps=1e-05, momentum=0.1, affine=True, track_running_stats=True)
      )
    )
    (avgpool): AdaptiveAvgPool1d(output_size=1)
  )
  (Route3): Route(
    (block1): ResidualBlock(
      (conv): Sequential(
        (0): Conv1d(64, 64, kernel_size=(7,), stride=(1,), padding=(3,), bias=False)
        (1): BatchNorm1d(64, eps=1e-05, momentum=0.1, affine=True, track_running_stats=True)
        (2): ReLU(inplace=True)
        (3): Conv1d(64, 64, kernel_size=(7,), stride=(1,), padding=(3,), bias=False)
        (4): BatchNorm1d(64, eps=1e-05, momentum=0.1, affine=True, track_running_stats=True)
      )
      (shortcut): Sequential(
        (0): Conv1d(64, 64, kernel_size=(1,), stride=(2,), bias=False)
        (1): BatchNorm1d(64, eps=1e-05, momentum=0.1, affine=True, track_running_stats=True)
      )
    )
    (block2): ResidualBlock(
      (conv): Sequential(
        (0): Conv1d(64, 128, kernel_size=(7,), stride=(2,), padding=(3,), bias=False)
        (1): BatchNorm1d(128, eps=1e-05, momentum=0.1, affine=True, track_running_stats=True)
        (2): ReLU(inplace=True)
        (3): Conv1d(128, 128, kernel_size=(7,), stride=(1,), padding=(3,), bias=False)
        (4): BatchNorm1d(128, eps=1e-05, momentum=0.1, affine=True, track_running_stats=True)
      )
      (shortcut): Sequential(
        (0): Conv1d(64, 128, kernel_size=(1,), stride=(2,), bias=False)
        (1): BatchNorm1d(128, eps=1e-05, momentum=0.1, affine=True, track_running_stats=True)
      )
    )
    (block3): ResidualBlock(
      (conv): Sequential(
        (0): Conv1d(128, 256, kernel_size=(7,), stride=(2,), padding=(3,), bias=False)
        (1): BatchNorm1d(256, eps=1e-05, momentum=0.1, affine=True, track_running_stats=True)
        (2): ReLU(inplace=True)
        (3): Conv1d(256, 256, kernel_size=(7,), stride=(1,), padding=(3,), bias=False)
        (4): BatchNorm1d(256, eps=1e-05, momentum=0.1, affine=True, track_running_stats=True)
      )
      (shortcut): Sequential(
        (0): Conv1d(128, 256, kernel_size=(1,), stride=(2,), bias=False)
        (1): BatchNorm1d(256, eps=1e-05, momentum=0.1, affine=True, track_running_stats=True)
      )
    )
    (block4): ResidualBlock(
      (conv): Sequential(
        (0): Conv1d(256, 512, kernel_size=(7,), stride=(2,), padding=(3,), bias=False)
        (1): BatchNorm1d(512, eps=1e-05, momentum=0.1, affine=True, track_running_stats=True)
        (2): ReLU(inplace=True)
        (3): Conv1d(512, 512, kernel_size=(7,), stride=(1,), padding=(3,), bias=False)
        (4): BatchNorm1d(512, eps=1e-05, momentum=0.1, affine=True, track_running_stats=True)
      )
      (shortcut): Sequential(
        (0): Conv1d(256, 512, kernel_size=(1,), stride=(2,), bias=False)
        (1): BatchNorm1d(512, eps=1e-05, momentum=0.1, affine=True, track_running_stats=True)
      )
    )
    (avgpool): AdaptiveAvgPool1d(output_size=1)
  )
  (fc): Linear(in_features=1536, out_features=6, bias=True)
)
net parameters: 8.42M
label statistics: [715 643 518 254 517 436]
Loss_weight:[0.81885882 0.87833147 0.99945861 1.39877569 1.00054139 1.09602268]
------------------------------ k-fold:1 ------------------------------
>>> per epoch cost time:99.97s
fold  -> macro-prec,reca,F1,err,kappa: (0.3178, 0.3181, 0.2995, 0.6234, 0.2222)
confusion_mat:
[[64 42  4  3 16  6]
…
